models/Pong-v0_best.2022-05-22.pt (torch, 173600 bytes, 20 tensors)

weight f4 [16, 3, 5, 5]
0.05807337 0.0028771507 -0.024417322 -0.019847509 0.12803656 -0.133385 -0.009316995 0.21991709
-0.028343318 -0.099190876 0.29668114 0.1331188 0.21392529 -0.036846623 -0.06271886 -0.055403307
-0.13367228 -0.0057445723 -0.041282784 0.24064878 -0.22576103 -0.18819213 0.05849885 -0.17017744
0.013471858 -0.06793359 0.028022531 0.09822602 -0.1149399 0.10341164 -0.07442106 0.26340473
0.77293694 -0.1250325 -0.28119457 0.1506788 0.23763222 0.8008025 -0.076184936 -0.049061425
-0.19915102 -0.1659675 -0.12203229 -0.11214979 0.19709648 -0.20239492 -0.45225754 0.024637785
-0.43369678 -0.13419825 -0.19116682 0.12131812 0.23405476 0.113257386 -0.051494848 -0.13330401
0.3961589 1.1533403 0.07359379 -0.23938744 0.064376935 0.17883499 1.3457303 -0.03697327
0.13264306 0.014568934 -0.24130823 -0.011258395 -0.14198487 -0.0011662522 -0.05844721 -0.873348
-0.027419645 -0.5254797 -0.17580418 -0.044726744 0.18093073 0.0037607218 0.023252608 0.11224111
0.08160743 0.04392276 0.26344886 0.28554252 0.20167564 0.21969293 0.16843614 0.14870375
0.2491504 -0.24506089 -0.065772146 -0.050572656 -0.15069893 -0.30045697 -0.11492961 -0.19707198
-0.053029206 0.1053263 -0.05102613 0.22442773 -0.37652606 0.25845945 -0.2824813 -0.028707117
0.1482628 0.14681713 -0.021923944 0.1846733 0.28085807 0.34193513 0.064934336 -0.06046643
0.13696727 0.25331077 -0.21909273 -0.22651555 -0.16545805 -0.19153392 -0.71929103 -0.48108837
0.16789117 0.07618381 0.28922004 -0.57319623 -0.2337938 -0.45044187 0.2239931 -0.43990782
-0.082420245 0.13580371 -0.033046372 -0.016981373 0.120587535 0.43732494 0.40475816 0.05018251
-0.04661686 -0.0562206 0.50195944 -0.18307428 -0.30172476 -0.06020327 0.042343758 -0.9287627
-0.7164433 0.24970216 0.11577586 0.43651423 -1.0070103 -0.2718419 -0.008799152 -0.00039028123
0.16949876 0.16274735 -0.0055861427 0.06252098 -0.1633292 -0.3980354 -0.02208998 -0.15346454
0.1358205 0.15890509 -0.19722229 -0.04171101 -0.16882227 -0.035504434 0.49667794 0.30534863
0.15703997 0.16390242 -0.41544282 -0.010908857 -0.24041949 0.011089299 0.09363812 -0.09168278
-0.22821186 0.3174115 0.41895786 0.0012378101 -0.063420355 -0.054891247 -0.1691463 0.15362604
-0.27868667 0.031561293 0.42675307 -0.20003644 -0.13368043 -0.28300843 -0.016929923 0.84632456
0.08458546 0.06194105 0.06892166 -0.48376685 0.073895305 -0.33297914 0.06496994 0.03294265
-0.2133438 -0.30504844 0.29873595 0.45748484 -0.06290323 0.094991595 -0.17153741 -0.3498451
0.32423964 -0.15430547 -0.07287824 0.6243419 -0.1761173 0.056122813 -0.30642506 -0.09112318
1.2646961 0.106783345 -0.1840309 -0.09993358 -0.24136788 0.37877083 -0.61464655 0.0128310565
0.053530052 0.13607313 -0.13451989 0.02082338 0.12900554 0.06634458 -0.104797125 -0.25646544
-0.060283348 -0.3525346 -0.2427385 -0.13627698 -0.23288263 0.14514895 -0.007805507 0.20289308
0.33086407 0.058090992 0.00457601 0.04269868 -0.11861616 0.09492042 0.10467796 0.1634992
-0.14194381 -0.12767205 -0.05582875 -0.3014419 0.13113317 0.1512522 0.05121562 -0.33919767
00000000: 58de 6d3d 948e 3c3b d606 c8bc 3e97 a2bc
00000010: 041c 033e 1496 08be 4fa6 18bc f231 613e
00000020: 3f30 e8bc 9624 cbbd 97e6 973e 4b50 083e
00000030: 3b0f 5b3e 7cec 16bd bf72 80bd 94ee 62bd
00000040: 63e1 08be f73c bcbb 2318 29bd a26c 763e
00000050: e62d 67be 70b5 40be 7d9c 6f3d ff42 2ebe
00000060: 11b9 5c3c c420 8bbd 828f e53c b92a c93d
00000070: 9c65 ebbd 7bc9 d33d 126a 98bd fcdc 863e
00000080: 32df 453f 8508 00be bcf8 8fbe 8b4b 1a3e
00000090: dc55 733e 6501 4d3f d906 9cbd a2f4 48bd
000000a0: 3fee 4bbe 62f3 29be 11ec f9bd caae e5bd
000000b0: a9d3 493e 9d40 4fbe 4d8e e7be 2ed5 c93c
000000c0: 810d debe 446b 09be 3cc1 43be a275 f83d
000000d0: 0dac 6f3e 7df3 e73d 43ec 52bd d980 08be
000000e0: 57d5 ca3e a8a0 933f 57b8 963d fb21 75be
000000f0: 0ed8 833d 8520 373e e440 ac3f 4971 17bd
00000100: 95d3 073e 8ab2 6e3c 8119 77be 2275 38bc
00000110: 7b64 11be eedc 98ba 5766 6fbd bc93 5fbf
00000120: 2a9f e0bc d685 06bf 0306 34be 6433 37bd
00000130: e845 393e 7176 763b 417c be3c abde e53d
00000140: cc21 a73d 5ae8 333d c5e2 863e a132 923e
00000150: 0f84 4e3e 2ff7 603e 867a 2c3e cc45 183e
00000160: 4821 7f3e 3ef1 7abe 8cb3 86bd 4625 4fbd
00000170: d250 1abe 7fd5 99be 3760 ebbd 3dcd 49be
00000180: 2735 59bd 51b5 d73d c600 51bd 62d0 653e
00000190: 06c8 c0be cc54 843e 64a1 90be 302b ebbc
000001a0: 34d2 173e 3b57 163e d899 b3bc ff1a 3d3e
000001b0: a1cc 8f3e 1f12 af3e 4bfc 843d a6ab 77bd
000001c0: 2641 0c3e f3b1 813e d859 60be b1f3 67be
000001d0: d66d 29be 7821 44be 7523 38bf 3751 f6be
000001e0: aaeb 2b3e 4206 9c3d a614 943e fdbc 12bf
000001f0: a467 6fbe 51a0 e6be 725e 653e 993b e1be
00000200: f2cb a8bd 2110 0b3e a25b 07bd 851c 8bbc
00000210: 99f6 f63d 0ee9 df3e 763c cf3e 2d8c 4d3d
00000220: 52f1 3ebd 9247 66bd 6a80 003f d377 3bbe
00000230: ab7b 9abe b497 76bd a670 2d3d 64c3 6dbf
00000240: d468 37bf ecb1 7f3e e51b ed3d cb7e df3e
00000250: b7e5 80bf dd2e 8bbe 522a 10bc a99e ccb9
00000260: 1591 2d3e 3ea7 263e f60b b7bb 000b 803d
00000270: c53f 27be 4ccb cbbe 0cf6 b4bc cf25 1dbe
00000280: 8714 0b3e 04b8 223e a4f4 49be 2ad9 2abd
00000290: bfdf 2cbe 196d 11bd 924c fe3e a856 9c3e
000002a0: 16cf 203e 09d6 273e ecb4 d4be 10bb 32bc
000002b0: 8730 76be e4af 353c 58c5 bf3d 2ec4 bbbd
000002c0: 5fb0 69be c383 a23e a581 d63e 043e a23a
000002d0: 88e2 81bd a5d5 60bd b034 2dbe 2550 1d3e
000002e0: 05b0 8ebe 6a46 013d 617f da3e 5ad6 4cbe
000002f0: 86e3 08be 7be6 90be 9fb0 8abc baa8 583f
00000300: 243b ad3d e6b5 7d3d cd26 8d3d 4ab0 f7be
00000310: 6c56 973d 3e7c aabe f60e 853d dfee 063d
00000320: cc76 5abe 4f2f 9cbe ebf3 983e 743b ea3e
00000330: 69d3 80bd f48a c23d 81a7 2fbe e61e b3be
00000340: bd02 a63e 4102 1ebe 3041 95bd dfd4 1f3f
00000350: 1858 34be 09e1 653d bfe3 9cbe ca9e babd
00000360: 90e1 a13f 3ab1 da3d 9972 3cbe faa9 ccbd
00000370: 2429 77be 40ee c13e 7a59 1dbf 5a39 523c
00000380: 5442 5b3d c156 0b3e 95bf 09be cb95 aa3c
00000390: 071a 043e abdf 873d e09f d6bd 704f 83be
000003a0: aceb 76bd 6a7f b4be 7190 78be 318c 0bbe
000003b0: c978 6ebe eda1 143e 57c5 ffbb 34c3 4f3e
000003c0: 0467 a93e d2f0 6d3d 5bf2 953b d0e4 2e3d
000003d0: 07ed f2bd a365 c23d 6661 d63d 566c 273e
000003e0: b859 11be 76bc 02be b0ac 64bd 9856 9abe
000003f0: c647 063e dbe1 1a3e 78c7 513d 51ab adbe

bias f4 [16]
-0.061333045 -0.03322819 0.05160692 0.029272849 -0.11196419 -0.12308793 -0.061033472 0.03470895
-0.10930958 0.105517246 -0.07524543 -0.026679682 0.038428213 0.04296305 0.021435186 0.019460753
00000000: 5c38 7bbd 481a 08bd c761 533d 9dcd ef3c
00000010: 7b4d e5bd 8615 fcbd 3cfe 79bd f92a 0e3d
00000020: b3dd dfbd 6d19 d83d 471a 9abd 598f dabc
00000030: e766 1d3d 06fa 2f3d d898 af3c 286c 9f3c

weight f4 [32, 16, 5, 5]
-0.047896963 -0.32295334 0.069282666 0.15108228 0.33312634 0.0040075104 0.0447333 0.051640116
0.1203793 0.10470648 0.015365776 -0.10323382 -0.4125702 0.39151618 -0.26119658 -0.43647325
-0.13048448 -0.33573794 -0.48795822 -0.04883207 -0.102201104 -0.2143262 0.19554122 0.117172524
0.15624681 0.03891912 -0.27953324 -0.0055981916 -0.5874647 -0.12423794 -0.06755227 0.53066045
-0.11288129 -0.7144984 -0.39128768 0.14033672 -0.17569742 0.14415173 0.02030866 -0.1787131
0.064745225 -0.076353155 0.024068337 -0.12278057 -0.17623404 -0.4773452 -0.20838578 0.34321928
-0.27887008 0.04293149 0.2013468 0.067116216 -0.37224755 -0.0078168735 -0.51924765 0.2828129
0.4271279 -0.031038724 0.45264798 0.23881753 -0.2700143 -0.34084916 -0.20054968 0.042726096
-0.13372742 -0.31940648 0.23794134 -0.62193394 0.40968347 -0.06660696 -0.064330205 -0.8711837
0.21737985 -0.014456199 0.29951248 -0.022761729 0.0018909894 -0.044911746 -0.19988208 -0.1659893
-0.027310703 0.55253285 -0.18300234 -0.1758502 -0.3133334 -0.14619268 0.36266375 0.057573643
-0.0898938 0.08211951 -0.40376428 -0.14862409 -0.1157207 0.35285726 0.33265498 0.047337174
-0.068846375 0.15216404 0.18139395 0.4184912 0.026848039 -0.4337917 -0.03241111 0.06384553
0.12866624 0.14758836 0.09069129 -0.21980014 0.005732026 -0.10568429 -0.47711095 -0.1550078
0.06523282 -0.37449044 -0.111007564 -0.5365225 -0.4072598 0.30125093 0.35089296 -0.081074886
0.09222718 0.06745563 0.1804849 0.22689678 -0.30762774 0.16011572 0.34914392 -0.59582263
0.00405246 -0.039812375 0.11728045 0.3001197 0.08128371 0.15463278 -0.60675037 -0.017912323
0.19012618 0.10587212 -0.22949088 -0.4895947 -0.6297022 -0.39408395 -0.49203184 -0.187663
0.25267076 -0.1019667 -0.7055015 0.056234963 -0.16705021 0.13338508 0.062976524 0.27057308
0.40151083 0.15030743 -0.18265036 0.052159153 -0.23558784 0.28262198 -0.17590308 -0.6146665
-0.1917133 -0.50571316 -0.36523166 -0.04096838 -0.21078005 -0.16448121 -0.03702778 -0.39263952
0.017480234 -0.004244698 0.24209268 -0.3351702 0.008019117 0.0004780327 0.045561276 -0.25380152
-0.021804225 -0.039936528 0.030500922 0.034431122 -0.06102001 0.19955546 0.32249066 -0.17838675
-0.6902761 -0.14375505 0.1351727 0.48975834 -0.17940018 -0.22573276 -0.2228952 0.44354862
0.42805555 0.18990196 0.16225646 0.20966999 -0.029662576 0.1502478 0.07355467 -0.29147497
-0.07661116 0.13938035 -0.50948256 -0.2647875 -0.44684693 0.22240105 0.37295428 0.24725126
0.3043441 -0.74263966 -0.017407663 0.11898144 0.426152 -0.15288368 -0.5635859 -0.42404863
0.043605674 0.53217894 0.5254711 -0.08632528 0.16616945 0.28608447 0.4337265 0.1743999
-0.13765837 0.20616992 -0.10771219 -0.22546919 0.06989006 0.123386025 0.29289874 0.061298836
-0.8003843 0.28098318 -0.044754863 0.0030854184 -0.36908448 0.28383005 -0.39414167 -0.6132065
-0.21593632 0.27004647 -0.11581816 0.22094816 -0.39069873 -0.050053436 0.036719013 0.3990939
-0.08352143 -0.12522623 -0.21717171 -0.26799053 -0.3858963 -0.15859693 -0.51247746 0.23441306
00000000: 9b2f 44bd 245a a5be 12e4 8d3d 50b5 1a3e
00000010: 898f aa3e 6f51 833b 443a 373d 9684 533d
00000020: 6c89 f63d 5a70 d63d bcc0 7b3c 416c d3bd
00000030: 673c d3be cf74 c83e 8fbb 85be 6c79 dfbe
00000040: b99d 05be d8e5 abbe a9d5 f9be 2304 48bd
00000050: d04e d1bd 5478 5bbe f53b 483e 26f8 ef3d
00000060: 2aff 1f3e a869 1f3d fb1e 8fbe 0971 b7bb
00000070: 1664 16bf 7670 febd d858 8abd 5dd9 073f
00000080: 4e2e e7bd 5ee9 36bf dc56 c8be 6eb4 0f3e
00000090: 06ea 33be 839c 133e 595e a63c 9100 37be
000000a0: 2599 843d 0b5f 9cbd f62a c53c 6174 fbbd
000000b0: b276 34be 9766 f4be 1563 55be 70ba af3e
000000c0: 0fc8 8ebe eed8 2f3d db2d 4e3e 3a74 893d
000000d0: 3b97 bebe 5812 00bc 6aed 04bf dacc 903e
000000e0: 82b0 da3e ec44 febc 7ac1 e73e 958c 743e
000000f0: 503f 8abe c883 aebe e55c 4dbe 8f01 2f3d
00000100: d7ef 08be 3f89 a3be e5a6 733e 1037 1fbf
00000110: 08c2 d13e 3b69 88bd 8ebf 83bd e505 5fbf
00000120: d398 5e3e b1d9 6cbc b359 993e ce76 babc
00000130: 13db f73a 61f5 37bd e3ad 4cbe 19f9 29be
00000140: b2ba dfbc cb72 0d3f f764 3bbe 1312 34be
00000150: 3c6d a0be 89b3 15be 10af b93e 57d2 6b3d
00000160: 3e1a b8bd 462e a83d 31ba cebe ea30 18be
00000170: f9fe ecbd b5a9 b43e c151 aa3e a0e4 413d
00000180: 54ff 8cbd e4d0 1b3e 56bf 393e 7b44 d63e
00000190: 6bf0 db3c f219 debe 83c1 04bd 72c1 823d
000001a0: 15c1 033e 6721 173e 5bbc b93d 4a13 61be
000001b0: b8d3 bb3b 0171 d8bd e347 f4be 5dba 1ebe
000001c0: c998 853d 36bd bfbe ef57 e3bd 8a59 09bf
000001d0: 5b84 d0be 903d 9a3e 3ea8 b33e 970a a6bd
000001e0: 9be1 bc3d 2d26 8a3d 09d1 383e a157 683e
000001f0: 6281 9dbe 60f5 233e fec2 b23e d587 18bf
00000200: 80ca 843b 4d12 23bd bc30 f03d 4aa9 993e
00000210: 1378 a63d 0e58 1e3e fe53 1bbf ddbc 92bc
00000220: 70b0 423e 7bd3 d83d a8ff 6abe 28ac fabe
00000230: 2a34 21bf 5fc5 c9be 99eb fbbe bb2a 40be
00000240: 105e 813e ebd3 d0bd bf9b 34bf a256 663d
00000250: 360f 2bbe 1996 083e d6f9 803d 8e88 8a3e
00000260: d492 cd3e 31ea 193e b208 3bbe d6a4 553d
00000270: f03d 71be d4b3 903e f01f 34be c95a 1dbf
00000280: 7e50 44be 6b76 01bf a5ff babe 76ce 27bd
00000290: bad6 57be c36d 28be 71aa 17bd 0c08 c9be
000002a0: b532 8f3c 1c17 8bbb 25e7 773e 6e9b abbe
000002b0: 9d62 033c 77a0 fa39 769e 3a3d 46f2 81be
000002c0: c69e b2bc 7c94 23bd 12dd f93c a607 0d3d
000002d0: 1ef0 79bd 4458 4c3e 7f1d a53e 04ab 36be
000002e0: efb5 30bf 8634 13be b66a 0a3e 9bc1 fa3e
000002f0: aeb4 37be 7d26 67be a43e 64be ce18 e33e
00000300: 192a db3e a975 423e 8f26 263e bbb3 563e
00000310: eefe f2bc 8fda 193e d5a3 963d 353c 95be
00000320: 50e6 9cbd b9b9 0e3e 736d 02bf 3a92 87be
00000330: 1fc9 e4be 1abd 633e ddf3 be3e 6f2f 7d3e
00000340: fdd2 9b3e a21d 3ebf 849a 8ebc 8bac f33d
00000350: 9830 da3e 8a8d 1cbe 2a47 10bf e71c d9be
00000360: dd9b 323d e13c 083f 4685 063f 4fcb b0bd
00000370: 5328 2a3e aa79 923e 6611 de3e e395 323e
00000380: 51f6 0cbe 351e 533e 3598 dcbd 65e1 66be
00000390: 8522 8f3d d0b1 fc3d d3f6 953e 7d14 7b3d
000003a0: fce5 4cbf 07dd 8f3e e050 37bd bb34 4a3b
000003b0: a4f8 bcbe 2c52 913e f0cc c9be 1afb 1cbf
000003c0: 691e 5dbe 8843 8a3e 1232 edbd 3c40 623e
000003d0: aa09 c8be d504 4dbd ad66 163d 0956 cc3e
000003e0: 490d abbd 4e3b 00be 4362 5ebe 0e36 89be
000003f0: 3394 c5be 3c67 22be b931 03bf fa09 703e

bias f4 [32]
0.04502992 0.013430228 0.015438715 -0.03673955 -0.0059468066 0.03332422 -0.021160219 0.0034398343
0.028846797 0.01706217 0.0021770338 -0.015996186 0.004608711 -0.040283613 -0.0005749811 -0.018643772
0.013397601 -0.00066231616 0.04477093 0.028494002 0.03895042 0.0004818377 -0.0015571592 0.006913648
0.041095022 0.0059091463 -0.036264278 0.023529805 0.039178364 0.0141925905 -0.04273232 -0.037387554
00000000: 4b71 383d 760a 5c3c aaf2 7c3c 367c 16bd
00000010: 6edd c2bb fa7e 083d 3258 adbc d86e 613b
00000020: 1e50 ec3c f7c5 8b3c 91ac 0e3b 6f0a 83bc
00000030: ac04 973b 6e00 25bd 54ba 16ba d3ba 98bc
00000040: 9d81 5b3c 499f 2dba b961 373d 416c e93c
00000050: 7a8a 1f3d 299f fc39 9819 ccba e28b e23b
00000060: 4153 283d 83a1 c13b da89 14bd 94c1 c03c
00000070: 7e79 203d 0a88 683c 1608 2fbd b123 19bd

weight f4 [32, 32, 5, 5]
0.12623964 -0.2850452 -0.4484854 0.3306296 -0.016790774 -0.27347836 -0.37272075 -0.073764734
0.026826032 0.21583627 0.06551394 -0.36971006 0.09303326 -0.20086145 -0.38413972 0.3743525
-0.07815065 0.25561923 0.09400759 -0.22621363 0.013863786 -0.23052152 0.44035605 0.057773244
0.17884956 0.73595476 -0.15217236 -0.33961746 -0.24299026 0.23066472 0.1285294 0.12354895
-0.00701295 0.020579914 0.08088869 0.00534174 -0.06273545 0.009502017 -0.068917334 0.27977654
-0.042259313 0.20350255 -0.34312212 0.12113415 0.26209518 0.65163434 0.22465636 0.42525572
0.3579516 -0.114302 -0.31674486 0.1648091 -0.3266478 0.11991302 -0.38922775 -0.09520698
-0.10984628 0.1377904 -0.24617359 0.084244244 -0.41277894 -0.032157954 -0.3451323 0.11434646
0.24063173 -0.4827028 0.56157064 0.082650855 0.24875507 -0.22931638 -0.56558514 -0.28434208
0.33711258 0.32734078 0.15844086 -0.27604383 0.07145734 0.07295064 -0.2716316 -0.12539092
-0.11964779 -0.013657069 0.16855036 -0.18718801 0.70805186 -0.1174764 0.23242071 0.18252648
0.52442765 0.24401411 -0.25616026 0.18522805 -0.028034106 0.11644929 -0.062087193 -0.19129743
-0.02064167 0.24882358 -0.13210142 0.13455543 0.7918225 0.7721413 0.36458066 0.40173838
0.33864474 0.7761421 0.7891328 0.20523524 0.66047955 0.47534215 0.3826253 0.45931688
0.3439845 0.3353477 0.30712995 1.1435232 0.9327816 0.43444592 0.7413328 0.4048045
1.195078 1.1628177 0.26478294 -0.10177952 0.34559637 0.30287257 0.2734004 0.55499077
0.43916157 0.6584856 0.25201982 0.6142191 0.49940056 0.8353702 0.6212713 0.7422125
-0.12359799 0.52932835 1.0175271 1.1332272 0.22436146 0.42720523 -0.3885957 0.50536317
0.16834667 0.87572795 0.5249357 0.80603385 1.2106105 -0.20036015 -0.5839901 -0.034337766
-0.20241524 0.31108883 -0.2192324 -0.4693366 -0.14438462 -0.055198714 0.111566015 0.63391584
-0.452753 0.21413837 0.13673036 0.25684637 0.27558568 -0.21420355 -0.3850812 0.5074307
0.15098862 -0.2897047 -0.07107851 -0.45827875 0.5464566 -0.123024024 0.17001972 -0.61589634
-0.14926068 -0.15270329 -0.12124164 0.51043695 -0.27570093 -0.11420277 0.17676373 0.14764084
-0.008314451 -0.34736696 0.051480897 0.5150476 0.7548901 -0.14337268 -0.29253623 0.36715212
0.44753206 0.016908329 0.018941017 -0.19967642 0.3679777 -0.0075184577 0.044963874 0.044521157
0.077904634 0.13656658 0.095773205 0.33527288 -0.4082359 0.038857423 -0.027369196 0.047338713
-0.23606186 -0.3753614 0.0012519553 -0.064320065 -0.03129606 0.006097066 0.078686774 0.17253196
0.29797584 -0.1490795 0.040682197 0.035948936 -0.012411056 0.16844249 0.2142106 0.3487082
0.5966434 -0.12374415 -0.55315804 -0.7341904 -0.05239552 0.046267614 -0.015645782 -0.38541985
0.16565087 0.067829564 0.73820513 0.30924404 0.10921381 0.16059016 0.12895536 -0.05301116
-0.164291 0.15526488 0.20447795 0.07891011 0.21926086 0.03391661 0.5625622 0.4326948
0.18092993 -0.39497644 0.7625637 -0.04203725 0.38163063 0.44171435 0.8968849 0.30871156
00000000: f744 013e 72f1 91be e19f e5be 4848 a93e
00000010: ce8c 89bc 5b05 8cbe 41d5 bebe f711 97bd
00000020: 44c2 db3c 2f04 5d3e 2c2c 863d a34a bdbe
00000030: 3988 be3d a0ae 4dbe f6ad c4be 22ab bf3e
00000040: 730d a0bd 86e0 823e 0d87 c03d 8ca4 67be
00000050: ef24 633c d50d 6cbe 5976 e13e a3a3 6c3d
00000060: 5724 373e 8867 3c3f 12d3 1bbe 57e2 adbe
00000070: 70d2 78be 5f33 6c3e 369d 033e 3b07 fd3d
00000080: e3cc e5bb 3597 a83c f8a8 a53d c309 af3b
00000090: 727b 80bd 59ae 1b3c 8824 8dbd df3e 8f3e
000000a0: 1a18 2dbd f962 503e b4ad afbe 2e15 f83d
000000b0: 5731 863e 82d1 263f 510c 663e 1ebb d93e
000000c0: 6f45 b73e 2b17 eabd 622c a2be b7c3 283e
000000d0: 613e a7be f594 f53d dc48 c7be e1fb c2bd
000000e0: 16f7 e0bd ed18 0d3e ee14 7cbe 3f88 ac3d
000000f0: c357 d3be 0fb8 03bd 2eb5 b0be 7a2e ea3d
00000100: 2a68 763e d224 f7be 18c3 0f3f da44 a93d
00000110: a6b9 7e3e ead1 6abe 30ca 10bf 4995 91be
00000120: 059a ac3e 3699 a73e 523e 223e 9e55 8dbe
00000130: 3a58 923d 2567 953d 4c13 8bbe 7a66 00be
00000140: e709 f5bd e6c1 5fbc 7798 2c3e 37ae 3fbe
00000150: e342 353f 7897 f0bd b2ff 6d3e 39e8 3a3e
00000160: e440 063f d6de 793e 7027 83be 6cac 3d3e
00000170: c8a7 e5bc f77c ee3d 244f 7ebd 79e3 43be
00000180: b818 a9bc 9ccb 7e3e 9845 07be e6c8 093e
00000190: e1b4 4a3f 0dab 453f 51aa ba3e a7b0 cd3e
000001a0: d862 ad3e 40b1 463f 9b04 4a3f 3029 523e
000001b0: 3015 293f 0c60 f33e 77e7 c33e 952b eb3e
000001c0: bd1e b03e b2b2 ab3e 2340 9d3e f85e 923f
000001d0: c6ca 6e3f b26f de3e fdc7 3d3f 8942 cf3e
000001e0: 51f8 983f 36d7 943f a191 873e c871 d0bd
000001f0: 02f2 b03e 1d12 9b3e 23fb 8b3e e013 0e3f
00000200: c9d9 e03e 8392 283f be08 813e 773d 1d3f
00000210: 6eb1 ff3e d2da 553f a30b 1f3f a301 3e3f
00000220: f120 fdbd 1082 073f 543e 823f 970d 913f
00000230: 03bf 653e a5ba da3e 04f6 c6be 7b5f 013f
00000240: 1263 2c3e b52f 603f 3062 063f 3c58 4e3f
00000250: 49f5 9a3f 362b 4dbe 6080 15bf c2a5 0cbd
00000260: f145 4fbe 0947 9f3e 757e 60be e34c f0be
00000270: 90d9 13be 0c18 62bd b97c e43d 4f48 223f
00000280: 3ecf e7be 1747 5b3e 0b03 0c3e 5e81 833e
00000290: 9119 8d3e 2d58 5bbe 5d29 c5be fae6 013f
000002a0: c39c 1a3e 2d54 94be 9c91 91bd 83a3 eabe
000002b0: 94e4 0b3f 05f4 fbbd a619 2e3e 62ab 1dbf
000002c0: cbd7 18be 405e 1cbe 894d f8bd ffab 023f
000002d0: ac28 8dbe 24e3 e9bd 8d01 353e 292f 173e
000002e0: 5639 08bc 15da b1be a2dd 523d 29da 033f
000002f0: 7a40 413f 4ad0 12be 4fc7 95be 5dfb bb3e
00000300: ec22 e53e 5683 8a3c 312a 9b3c fa77 4cbe
00000310: 9367 bc3e 655d f6bb 0a2c 383d d15b 363d
00000320: 778c 9f3d 1cd8 0b3e be24 c43d e3a8 ab3e
00000330: 4c04 d1be f628 1f3d 5d35 e0bc 3de6 413d
00000340: 33ba 71be 5f2f c0be a618 a43a 3dba 83bd
00000350: 4c30 00bd e6c9 c73b 8826 a13d 38ac 303e
00000360: 4a90 983e 4ca8 18be 60a2 263d 313f 133d
00000370: be57 4bbc 307c 2c3e 065a 5b3e e289 b23e
00000380: 9fbd 183f 936d fdbd c49b 0dbf e7f3 3bbf
00000390: af9c 56bd 1c83 3d3d 952b 80bc c055 c5be
000003a0: 62a0 293e 3aea 8a3d 03fb 3c3f 3c55 9e3e
000003b0: 7dab df3d bf71 243e e00c 043e 3b22 59bd
000003c0: e63b 28be c2fd 1e3e ab62 513e a09b a13d
000003d0: eb85 603e 25ec 0a3d 1404 103f 2c8a dd3e
000003e0: b245 393e 5a3a cabe 6037 433f 402f 2cbd
000003f0: 1765 c33e 6228 e23e 409a 653f 710f 9e3e

bias f4 [32]
-0.020425042 0.01806264 -0.028448146 -0.008072924 -0.010724398 -0.009855125 0.034623586 -0.012504761
-0.011169317 -0.009338188 -0.012768383 -0.0118708415 -0.0092275 -0.015874384 0.023478316 0.0055551357
0.00022186812 0.024565596 -0.0027311598 0.008866235 0.05037402 0.029533327 -0.00021021263 0.017911019
0.012514753 0.034266457 -0.033189505 0.01602475 -0.03574946 -0.009368847 -0.02884961 0.032713927
00000000: 6b52 a7bc 1af8 933c 160c e9bc 4c44 04bc
00000010: 63b5 2fbc 6477 21bc 76d1 0d3d c5e0 4cbc
00000020: 83ff 36bc 33ff 18bc 7b32 51bc eb7d 42bc
00000030: f12e 17bc ff0a 82bc 9955 c03c db07 b63b
00000040: 45a5 6839 ca3d c93c 42fd 32bb af43 113c
00000050: fd54 4e3d e0ef f13c 866c 5cb9 21ba 923c
00000060: ae0a 4d3c fc5a 0c3d b8f1 07bd 5646 833c
00000070: 076e 12bd cb7f 19bc 0456 ecbc 0aff 053d

weight f4 [16]
0.8826319 0.85677755 0.95339125 0.8536636 0.93095255 1.0384096 1.3046203 1.039066
1.4407626 0.99743557 1.1076989 0.9752614 1.2089814 1.0599611 0.8683615 1.0813394
00000000: 2af4 613f c655 5b3f 7311 743f b389 5a3f
00000010: e852 6e3f 9bea 843f ccfd a63f 1d00 853f
00000020: e96a b83f f057 7f3f 14c9 8d3f bbaa 793f
00000030: e7bf 9a3f ceac 873f f04c 5e3f 5469 8a3f

bias f4 [16]
-0.034781914 -0.08500499 -0.048025556 -0.04710767 -0.050683774 -0.03815225 -0.04141272 -0.022498865
-0.037812356 -0.016572936 -0.023757642 -0.06433213 -0.04311556 -0.023170538 -0.052966602 -0.025782552
00000000: 7b77 0ebd 1917 aebd 72b6 44bd f9f3 40bd
00000010: ca99 4fbd 8945 1cbd 62a0 29bd 8a4f b8bc
00000020: 21e1 1abd f7c3 87bc 639f c2bc 90c0 83bd
00000030: f199 30bd 24d0 bdbc 82f3 58bd ee35 d3bc

running_mean f4 [16]
0.10624305 0.08069969 0.19458598 -0.08720026 -0.053135 -0.21310578 -0.093339406 0.06949069
-0.1440198 0.06529251 -0.09417731 -0.049134653 0.02626553 -0.021118613 0.0029955406 0.004953314
00000000: f595 d93d e145 a53d 8c41 473e 0d96 b2bd
00000010: 16a4 59bd 6738 5abe bb28 bfbd 2351 8e3d
00000020: ed79 13be 14b8 853d 09e0 c0bd 6b41 49bd
00000030: cf2a d73c f100 adbc d550 443b 694f a23b

running_var f4 [16]
0.00078196864 0.00026973998 0.0001327603 0.00025875532 0.00042933098 0.00013166908 0.0005238645 0.0015201191
0.00037120885 0.0005593437 0.00056543684 0.00040381512 0.0001986104 0.0011024514 0.00021970856 0.00027149188
00000000: 07fd 4c3a e36b 8d39 9235 0b39 8da9 8739
00000010: d417 e139 a610 0a39 f453 093a bc3e c73a
00000020: cf9e c239 eca0 123a d339 143a 26b7 d339
00000030: 1342 5039 2180 903a 9161 6639 0657 8e39

weight f4 [32]
1.2292478 1.0822685 1.1789185 0.9666056 0.325094 0.26942298 0.9934425 0.7186187
0.7261398 1.1540587 0.39709282 1.026363 0.48338315 0.2039774 1.4966905 2.408606
0.1610563 1.3155807 0.62347114 0.18036209 0.9249659 0.20174314 0.256333 1.1041492
1.3324707 1.4490874 0.26631016 0.68271947 0.18146051 1.9219978 1.2885084 1.4522759
00000000: fe57 9d3f c687 8a3f cde6 963f 7773 773f
00000010: b972 a63e cff1 893e 3f52 7e3f 65f7 373f
00000020: 4ce4 393f 32b8 933f c04f cb3e dd5f 833f
00000030: ff7d f73e 74df 503e 8e93 bf3f 9a26 1a40
00000040: f1eb 243e f364 a83f ce9b 1f3f d7b0 383e
00000050: 91ca 6c3f c195 4e3e 143e 833e c354 8d3f
00000060: 668e aa3f b27b b93f ce59 883e b4c6 2e3f
00000070: c9d0 393e 0604 f63f d8ed a43f 2de4 b93f

bias f4 [32]
0.74641997 -0.19865564 0.16227657 0.3476627 -0.5695329 -1.1554372 0.5424471 -0.25804058
0.5037381 -0.1967804 -0.73356265 -0.2437215 -0.53686714 -0.34103405 -0.14532702 0.91461164
-0.7238223 0.03912778 -0.076326974 -0.8340144 -0.1943999 -0.6509723 -0.8275865 0.5207132
0.05647528 0.060347162 -0.7629421 0.08390701 -0.86082935 0.32574293 0.3678886 0.35085022
00000000: 6115 3f3f 626c 4bbe d42b 263e d800 b23e
00000010: e8cc 11bf 5ee5 93bf d0dd 0a3f e51d 84be
00000020: fbf4 003f cd80 49be c3ca 3bbf 2192 79be
00000030: 2070 09bf 049c aebe 9bd0 14be fd23 6a3f
00000040: 6b4c 39bf 7344 203d 5151 9cbd f881 55bf
00000050: c410 47be 1fa6 26bf b5dc 53bf 764d 053f
00000060: a052 673d 962e 773d 2c50 43bf 70d7 ab3d
00000070: 505f 5cbf c7c7 a63e e55b bc3e a4a2 b33e

running_mean f4 [32]
-0.028142018 -0.11416957 -0.13747887 -0.21683213 -0.08334998 0.1541329 -0.13397752 -0.13124424
-0.13220622 -0.21971251 -0.041393794 -0.32235873 -0.16696145 -0.090364486 -0.09488097 0.123723716
-0.00045490355 0.0680272 -0.13655663 0.10181784 -0.12552072 0.094306625 -0.05612827 -0.09273462
-0.0198873 -0.08003928 -0.07866841 -0.13701102 -0.0126638515 -0.054245267 -0.17998458 -0.124152705
00000000: 178a e6bc bcd1 e9bd 43c7 0cbe 3e09 5ebe
00000010: 65b3 aabd 04d5 1d3e 6731 09be e464 06be
00000020: 1161 07be 51fc 60be 8a8c 29bd 340c a5be
00000030: f1f7 2abe 0411 b9bd f450 c2bd dc62 fd3d
00000040: 1f80 eeb9 d851 8b3d 80d5 0bbe df85 d03d
00000050: 8188 00be d523 c13d c2e6 65bd a6eb bdbd
00000060: b1ea a2bc a2eb a3bd e71c a1bd 9e4c 0cbe
00000070: 0b7c 4fbc 4930 5ebd e14d 38be c643 febd

running_var f4 [32]
1.4969895 4.531342 7.143914 3.3291242 2.842512 2.390785 2.4628954 3.813015
3.5949492 9.312983 5.3466253 12.53267 6.2141743 1.3741888 2.6667714 2.2818391
1.5399696 3.4593835 5.3174505 2.7048965 5.3500047 2.0176644 2.7812343 3.2512302
2.2112443 2.1900396 4.1380014 5.0437136 4.458294 2.4815667 5.289173 1.5007508
00000000: 5a9d bf3f c100 9140 f29a e440 5f10 5540
00000010: b7eb 3540 9f02 1940 14a0 1d40 7008 7440
00000020: a613 6640 fa01 1541 8e17 ab40 d185 4841
00000030: 84da c640 6be5 af3f 62ac 2a40 a709 1240
00000040: b91d c53f 8a66 5d40 8e28 aa40 061d 2d40
00000050: 3d33 ab40 6a21 0140 beff 3140 2814 5040
00000060: 0785 0d40 9c29 0c40 826a 8440 1a66 a140
00000070: 58aa 8e40 fdd1 1e40 e840 a940 9a18 c03f

weight f4 [32]
0.3079599 0.18023212 0.25340712 0.4132486 0.14270003 0.18405612 0.26252335 0.16623479
0.18693785 0.23105578 0.7597048 0.24466395 0.18459493 0.21602055 0.34166038 0.16746075
0.28523478 0.1486502 0.35308605 0.17324696 0.61209285 0.23089138 0.14669286 0.26776877
0.18783797 0.20878191 0.14126423 0.18826744 0.15113509 0.37024412 0.1799466 0.31230712
00000000: ecac 9d3e c58e 383e 94be 813e 5295 d33e
00000010: f51f 123e 3579 3c3e 7669 863e 7439 2a3e
00000020: a36c 3f3e e399 6c3e 047c 423f 3089 7a3e
00000030: 7406 3d3e 7e34 5d3e 1cee ae3e d57a 2b3e
00000040: 4b0a 923e c237 183e b2c7 b43e a767 313e
00000050: 1eb2 1c3f ca6e 6c3e a736 163e fd18 893e
00000060: 9958 403e edca 553e 92a7 103e 2ec9 403e
00000070: 28c3 1a3e a390 bd3e ec43 383e b8e6 9f3e

bias f4 [32]
-0.48939723 -0.6247386 -0.6096936 -0.7809827 -0.6165962 -0.6943387 -0.60636497 -0.68243665
-0.5968853 -0.6740814 -0.40476674 -0.6779408 -0.5730078 -0.6864485 -0.760446 -0.5529712
-0.7759827 -0.66524166 -0.62044406 -0.48807544 -1.0975257 -0.6663738 -0.6265708 -0.6909978
-0.63471615 -0.6302912 -0.6493919 -0.7440158 -0.637436 -0.7336464 -0.619661 -0.59957784
00000000: 4692 fabe deee 1fbf e114 1cbf 7bee 47bf
00000010: 40d9 1dbf 2ec0 31bf bc3a 1bbf 2bb4 2ebf
00000020: 7acd 18bf 9990 2cbf 963d cfbe 878d 2dbf
00000030: a4b0 12bf 17bb 2fbf 97ac 42bf 858f 0dbf
00000040: cda6 46bf 474d 2abf 6cd5 1ebf 06e5 f9be
00000050: b97b 8cbf 7997 2abf f266 20bf 3be5 30bf
00000060: c27c 22bf c45a 21bf 8c3e 26bf d277 3ebf
00000070: 012f 23bf 40d0 3bbf 1aa2 1ebf ef7d 19bf

running_mean f4 [32]
-1.1404523 -1.5318813 -0.8028891 0.87047744 4.0269365 2.7411668 -0.9614873 3.6639056
2.4992955 0.76418114 3.8756464 -1.4443297 1.6393677 0.9315304 -2.5844727 0.06518967
1.3497682 3.703726 0.036693044 0.08161874 -2.894083 1.1464843 1.3852159 3.1382174
-0.3904099 -3.5196426 2.4289143 0.21328507 6.392028 -0.40711507 0.36904183 5.5868883
00000000: 57fa 91bf b014 c4bf 248a 4dbf 9cd7 5e3f
00000010: aadc 8040 476f 2f40 0824 76bf 6e7d 6a40
00000020: 75f4 1f40 60a1 433f 970a 7840 ccdf b8bf
00000030: cdd6 d13f c778 6e3f 0068 25c0 2982 853d
00000040: 34c5 ac3f d909 6d40 724b 163d ba27 a73d
00000050: a838 39c0 ffbf 923f c14e b13f 8ed8 4840
00000060: cee3 c7be d341 61c0 5573 1b40 6767 5a3e
00000070: 7e8b cc40 6371 d0be 0df3 bc3e cac7 b240

running_var f4 [32]
0.696642 0.6072088 0.15756841 0.57599866 0.56674874 2.0839827 1.3805358 0.25065574
0.14791119 0.28802294 1.4995637 2.400581 0.93366677 1.538665 1.6455445 0.5983792
0.86485803 0.17470825 0.97888994 1.0527782 0.63529897 3.221186 0.5041422 0.40581807
1.8905996 1.1255815 0.2028491 0.8704111 0.3658933 0.38790357 0.69599706 3.3510635
00000000: 2157 323f 0972 1b3f 9d59 213e a674 133f
00000010: 7216 113f f95f 0540 66b5 b03f f355 803e
00000020: 0876 173e be77 933e b4f1 bf3f 1ea3 1940
00000030: c904 6f3f faf2 c43f 34a1 d23f 612f 193f
00000040: 5667 5d3f b8e6 323e 8898 7a3f 70c1 863f
00000050: f4a2 223f e927 4e40 770f 013f 63c7 cf3e
00000060: 2bff f13f 0e13 903f adb7 4f3e 43d3 5e3f
00000070: 5e56 bb3e 4c9b c63e dd2c 323f d377 5640

weight f4 [6, 192]
0.03162099 0.7185214 0.36523032 0.6514144 0.7260983 0.7842372 0.07353531 0.3839662
0.20193863 0.17174451 0.35537598 0.32589963 0.18917787 0.43718275 0.3662311 0.23308301
0.36572263 0.6634254 0.62602156 0.64175355 0.8041717 0.48753697 0.5519578 0.85635614
0.39742327 0.4750049 0.49451143 0.3005736 0.31685743 0.9078979 0.36755747 0.8462287
0.4056373 0.50518423 0.3538709 1.2222277 0.72889805 0.8709915 1.0314674 0.7428005
0.75018054 0.7026957 0.34093794 0.26988506 0.24374594 0.2658091 0.15984033 0.19765063
0.29103017 0.35538423 0.17101417 0.28852737 0.23357768 0.5042418 0.24173343 0.30008307
0.2824161 0.11277195 0.23665336 0.24582332 0.30340305 0.26224995 0.45128778 0.9323384
0.5841421 -0.1183337 0.5055715 0.3437894 0.80879843 0.52433 0.6160202 0.9259387
0.5200503 0.25288314 0.34641346 0.5009695 0.20532517 0.1747885 0.28207448 0.3185851
0.38086325 0.12930661 0.33282426 0.3287118 0.5858972 0.7538672 0.53622967 0.53579366
0.4267511 0.6487606 0.2763337 0.5027439 0.46217528 0.27788925 0.1486612 0.46527457
0.23510173 0.48139128 1.0490992 0.32434744 0.35154337 0.4146496 0.21120092 0.36083806
0.12529308 0.35333008 0.17937006 0.26310265 0.55779034 0.9017322 0.46704212 0.36324897
0.66672283 0.8173512 0.61556435 0.8246858 0.5559634 0.9307494 0.57742447 0.15930478
0.57535017 0.30815202 0.7946994 0.68430585 0.5292133 0.8033954 1.0180321 0.5110212
0.4131126 0.44674584 0.30369025 0.30340874 0.1404557 0.2138534 0.20696378 0.15082943
0.20839818 0.22740938 0.43254814 0.9532409 0.89225525 0.6458877 0.82001585 0.5336456
0.13255009 0.39436203 0.18583085 0.025082536 0.4592495 0.3880087 0.3670849 0.43106994
0.48496658 0.4017878 0.2919297 0.30286875 0.20457321 0.15411082 0.26020488 0.29038474
0.012405087 0.37221318 0.1397454 0.37342077 0.23012306 0.19644484 0.3115507 0.2880358
0.15615548 0.2963245 0.38699782 0.27793354 0.30546662 0.21242675 0.6611833 0.84350204
0.6505476 0.59061927 0.39871332 0.55124474 0.18499951 0.1856484 0.42308134 0.27932143
0.1908537 0.3446516 0.4217918 0.44203544 0.49170524 0.7766819 0.72201747 0.37352863
0.4196547 0.8403074 0.56720847 0.4808227 0.6881863 0.71230066 0.35059473 0.20465675
0.12331288 0.10497526 0.36878696 0.26741916 0.19937097 0.4039213 0.34426156 0.21165355
0.40591025 0.44169655 0.68158203 0.6277771 0.7182885 0.52022386 0.46313944 0.7479941
0.46503773 0.43799558 0.5286785 0.3840854 0.269977 1.0415045 0.6116296 0.91868883
0.48955536 0.5435708 0.30611822 1.2212044 0.27849755 0.9091446 1.089905 0.8181059
0.95113355 0.6533808 0.4001523 0.31389952 0.35476124 0.34850666 0.24327588 0.2802806
0.27802858 0.4378476 0.31428233 0.47294205 0.28161436 0.4105078 0.2881249 0.18869665
0.27928594 0.17865695 0.28700507 0.2232434 0.3199839 0.33541685 0.5025826 1.0005858
00000000: 0385 013d 05f1 373f 78ff ba3e 18c3 263f
00000010: 94e1 393f c5c3 483f ae99 963d 3897 c43e
00000020: 00c9 4e3e cbdd 2f3e d7f3 b53e 51dc a63e
00000030: d8b7 413e 6bd6 df3e a582 bb3e 50ad 6e3e
00000040: ff3f bb3e 3fd6 293f f342 203f f649 243f
00000050: 32de 4d3f 729e f93e 1b4d 0d3f 283a 5b3f
00000060: 107b cb3e d833 f33e 9a30 fd3e c8e4 993e
00000070: 233b a23e ff6b 683f 7e30 bc3e 72a2 583f
00000080: b1af cf3e c153 013f 912e b53e f571 9c3f
00000090: 1099 3a3f 4df9 5e3f 2007 843f 2c28 3e3f
000000a0: d50b 403f dee3 333f 6b8f ae3e 602e 8a3e
000000b0: 8998 793e 2118 883e 2fad 233e ed64 4a3e
000000c0: e801 953e ecf4 b53e 571e 2f3e dcb9 933e
000000d0: fd2e 6f3e fe15 013f f888 773e 7da4 993e
000000e0: d898 903e fbf4 e63d 4255 723e 1cb9 7b3e
000000f0: a557 9b3e a045 863e 310f e73e bbad 6e3f
00000100: 568a 153f f058 f2bd 226d 013f 2a05 b03e
00000110: 6a0d 4f3f 7e3a 063f 80b3 1d3f 520a 6d3f
00000120: 0422 053f e679 813e 1b5d b13e 8a3f 003f
00000130: c340 523e c2fb 323e 116c 903e 961d a33e
00000140: 8200 c33e f468 043e f167 aa3e ea4c a83e
00000150: 5cfd 153f 71fd 403f 5946 093f c629 093f
00000160: 1f7f da3e 2d15 263f 9c7b 8d3e d3b3 003f
00000170: 3da2 ec3e 8047 8e3e a43a 183e 7838 ee3e
00000180: 82be 703e eb78 f63e e248 863f de10 a63e
00000190: 7efd b33e f44c d43e 0e45 583e c4bf b83e
000001a0: d44c 003e aee7 b43e c9ac 373e 64b5 863e
000001b0: 59cb 0e3f ecd7 663f 2520 ef3e c5fb b93e
000001c0: 59ae 2a3f ee3d 513f a095 1d3f 9c1e 533f
000001d0: 9e53 0e3f 9845 6e3f 17d2 133f cb20 233e
000001e0: 264a 133f 1ac6 9d3e 6b71 4b3f ab2e 2f3f
000001f0: 867a 073f 52ab 4d3f e04e 823f 49d2 023f
00000200: 7f83 d33e dfbb e43e 4a7d 9b3e 6458 9b3e
00000210: 9ed3 0f3e 63fc 5a3e 50ee 533e 0873 1a3e
00000220: 5566 553e 01de 683e f376 dd3e 9807 743f
00000230: d76a 643f e558 253f 8fec 513f ff9c 083f
00000240: 36bb 073e d2e9 c93e 714a 3e3e e479 cd3c
00000250: c022 eb3e 14a9 c63e 8df2 bb3e 33b5 dc3e
00000260: 8a4d f83e 21b7 cd3e cf77 953e 9d11 9b3e
00000270: a47b 513e 3acf 1d3e 9339 853e 4fad 943e
00000280: b53e 4b3c ba92 be3e 6b19 0f3e 0231 bf3e
00000290: 61a5 6b3e d628 493e 9383 9f3e 6e79 933e
000002a0: 39e7 1f3e d8b7 973e 9424 c63e 4e4d 8e3e
000002b0: 1f66 9c3e 6686 593e 4f43 293f c0ef 573f
000002c0: 4a8a 263f d332 173f 2724 cc3e 601e 0d3f
000002d0: 8370 3d3e 9d1a 3e3e 1e9e d83e 3803 8f3e
000002e0: 276f 433e 2d76 b03e 18f5 d73e 7852 e23e
000002f0: cac0 fb3e a0d4 463f 23d6 383f 253f bf3e
00000300: fbdc d63e 631e 573f 9334 113f 652e f63e
00000310: fa2c 303f 5659 363f 2781 b33e 8a91 513e
00000320: 778b fc3d 45fd d63d a5d1 bc3e 2aeb 883e
00000330: e727 4c3e c6ce ce3e 0d43 b03e b5bb 583e
00000340: 78d3 cf3e 0d26 e23e 297c 2e3f 00b6 203f
00000350: c1e1 373f 642d 053f 9d20 ed3e 8b7c 3f3f
00000360: 6d19 ee3e f540 e03e 7957 073f d7a6 c43e
00000370: 6d3a 8a3e 0550 853f c293 1c3f 312f 6b3f
00000380: 00a7 fa3e 7527 0b3f 87bb 9c3e 6d50 9c3f
00000390: 3b97 8e3e b3bd 683f 0282 8b3f 636f 513f
000003a0: 7d7d 733f f743 273f c3e0 cc3e 70b7 a03e
000003b0: 44a3 b53e 776f b23e 501d 793e f080 8f3e
000003c0: c359 8e3e 902d e03e 9de9 a03e 7625 f23e
000003d0: c22f 903e 142e d23e 1b85 933e b239 413e
000003e0: 91fe 8e3e d9f1 363e 54f2 923e eb99 643e
000003f0: eed4 a33e c2bb ab3e 41a9 003f 3213 803f

bias f4 [6]
-0.19284712 -0.22586165 -0.18759681 -0.18761072 -0.1826411 -0.23359317
00000000: b779 45be 4748 67be 6119 40be 061d 40be
00000010: 4506 3bbe 0c33 6fbe
